data/savings/Pytorch_model.pt (torch, 12556 bytes, 10 tensors)

weight f4 [21, 20]
00000000: 0f40 3f3d 7e92 55bf 3ef9 933e e72c 7d3f
00000010: 8cf6 993e 574c 9a3e d522 063f faa6 8dbd
00000020: 8a63 b73e 33cb 563e de3a 99be 05ea 6ebf
00000030: 98b5 b73e bb93 2e3f 43b4 7e3e 7193 82be
00000040: c8f9 2e3f 5b2a 463f 8b8c 2abf 364d 3ebf
00000050: b501 a4bc 2430 f93e 47ce 8cbd 5fce 95be
00000060: c012 2fbe 11af 803e 3264 873e d413 9dbe
00000070: 977c 3fbf c2a9 e93d 9e2b 863d 7cb2 653e
00000080: 3529 d1bd 0714 413e 35b4 18be 2252 20be
00000090: d77d 4e3e 82e2 c33f 0d42 0bbf 02de 46bf
000000a0: 518c 94be 23fd 16bd da35 7ebe 5a9a b23b
000000b0: 50d4 293d c824 623e 9eb8 ec3c c2ed b9be
000000c0: 41b3 123f f917 aa3e f988 febe 252f 83be
000000d0: feda 6fbe a7c2 f4bd 5184 94be 7045 c6be
000000e0: ec5f e43e 2d2d 933e ae15 113d fa92 c0bf
000000f0: 7467 d3bc 573d e1bd a9f5 5b3e f444 8f3e
00000100: 609d b5bc 3500 23bf d2ca c03b 4693 6f3e
00000110: ce20 d03e 3256 cc3e 893f 0bbf e61f 973e
00000120: b557 28bd 45e0 9f3e 4b90 d7be 0892 08bf
00000130: b02b 8d3e 6fa6 12be 7465 d53c 6654 9f3d
00000140: 4f8b 663e f2d4 f53c 901e 323d aa37 343d
00000150: cc68 cbbe 4bc7 94bf 6301 2f3d de75 c5be
00000160: dd17 af3e 3fda b33e 9ac7 013e 84b0 e73e
00000170: 4029 883f 40b4 92be 45c9 b93e 5da7 33be
00000180: 00fb 2c3f 1487 383d be14 f3be 08f8 47be
00000190: 3d3b 10be a82d 60be e6f8 663e 675a a4bd
000001a0: 2942 a23e 87af e1be 5a1d adbd 1afa 4bbe
000001b0: 4bca 9dbe 0377 3b3f 8dd3 0cbe 534a cdbe
000001c0: f11b 9ebe ec8a 743d c6e9 8abe 5ee9 0f3d
000001d0: d498 e7be eda7 863f 7cc1 9e3d 9d7f b53c
000001e0: 106f 65be ec0b 963e 06a1 1a3f 5154 af3c
000001f0: ce5e babe d6af 05bf 63d1 40bf 0621 b63e
00000200: 83a7 093f a38d b13d 0330 62be b0a7 1bbf
00000210: e2b9 98be 8520 6dbe 190a 4fbe f0d0 0a3d
00000220: 368e c8be 205f d03f 3c0f aebd a3a5 83bf
00000230: 4f62 9ebe c1f4 993e 6403 c6bd 275b 4d3e
00000240: cd31 103e b32c 093f 74d8 06bf 0ef6 803e
00000250: ad18 563e 6b9a 963d ef1d 173e 7821 bcbe
00000260: 32af 0bbf b4e8 fabe 0cf2 a9bc 99f0 d8be
00000270: b6f7 9b3d e3c3 8cbe d000 29bf f9ff 493f
00000280: ae44 e2be 53d8 243f 3bec 74be 7c10 5dbe
00000290: 61ef 35bf 40df 61bf 040c 5e3f 46b8 953e
000002a0: a3bb e7bd cbba 2d3e 2deb aebe 0cbf a6bd
000002b0: b301 a9be 1bb2 463f 35ec edbc b643 b13e
000002c0: 2835 39bf 3dcd 0cbf 63b4 debe ce53 4fbf
000002d0: 5815 e8be 3ec1 b23e 4b05 c7be 983e 99bf
000002e0: 2246 b53c d2d0 1b3f f2ab f73d 2403 debe
000002f0: 59dc da3e 68b1 533e 0f13 eb3e e391 21bf
00000300: 41e3 63be 6ac4 cebe a28e 3c3e af4c 11be
00000310: 8145 99be a578 183f 869d b13c 98a2 a2bf
00000320: 9a5d 91bd 64ee 6ebf 6945 d1be cbf2 33bf
00000330: d06c 3b3e 8080 21bf 488e 8fbe cb4c 533e
00000340: ac84 903d 96dc 4ebe f3f7 73be 8b24 ebbd
00000350: 26aa f23e e8a9 7e3e 6923 66be 3341 00be
00000360: 5353 2ebf e1a0 1dbf f8f5 6f3d 5f2d 77bf
00000370: fef4 c43e 05dd c63a 35d4 8b3d b899 35bd
00000380: bccc 18be 8233 9dbd aaa0 563e eb85 0bbe
00000390: 05b8 eebd 8751 b63d 52f0 a4bd 9def 803d
000003a0: ec3c 983e 424d 0a3d 413a d53c f4ad 75bb
000003b0: f51d 45be 1d42 073e 2f9e dcbd 7dd6 e63f
000003c0: 3b31 18be 17f8 243e 0d65 b6bd 208a 20be
000003d0: e937 253f 58dc 9abe c57f 26be d67a eebe
000003e0: f9e7 e03e 70a6 f63d ece3 883e 90da 4fbe
000003f0: 05d0 fabc 94e3 9dbe 5d55 fdbe a29e 8ebe
0.04669195 -0.83426654 0.28901094 0.9889664 0.30070913 0.30136368 0.523969 -0.06916614
0.3581813 0.20975952 -0.29927725 -0.93325835 0.35880733 0.6819417 0.24873452 -0.25503114
0.68349886 0.7740838 -0.666207 -0.74336565 -0.020020345 0.4866954 -0.06875282 -0.2925901
-0.17096996 0.25133565 0.2644363 -0.3067919 -0.74799484 0.11409332 0.06551288 0.22431368
-0.10212938 0.18855296 -0.14912494 -0.15656331 0.20165192 1.53035 -0.5439766 -0.7768251
-0.29013303 -0.036862504 -0.2482523 0.005450529 0.041462243 0.22084343 0.028896626 -0.36314207
0.5730477 0.33221415 -0.49713877 -0.25621906 -0.23423383 -0.119511895 -0.290072 -0.38724852
0.44604433 0.28745404 0.035421066 -1.5044854 -0.025806166 -0.10998028 0.2148043 0.27982295
-0.022169769 -0.6367219 0.005883553 0.23396024 0.40650028 0.39909512 -0.5439382 0.29516524
-0.04109927 0.31225792 -0.42102274 -0.53347826 0.27572393 -0.14321302 0.026049353 0.077797696
0.2251408 0.030008767 0.043486178 0.043998398 -0.3972839 -1.1623319 0.04272593 -0.38566488
0.34197894 0.35127446 0.12673798 0.45251858 1.0637589 -0.28653145 0.3628637 -0.17544313
0.67570496 0.045050696 -0.47476763 -0.1952821 -0.14085098 -0.21892416 0.22555885 -0.080250554
0.316911 -0.4407923 -0.08452864 -0.19919625 -0.308184 0.7322847 -0.13752575 -0.40095767
-0.30880693 0.0597028 -0.2713148 0.035134666 -0.45233786 1.0519997 0.07751748 0.022155577
-0.22405648 0.2930597 0.6040195 0.02140251 -0.36400455 -0.5222143 -0.753195 0.3557207
0.5377123 0.08669593 -0.22088628 -0.60802746 -0.29829317 -0.23156936 -0.20218696 0.033890665
-0.39170998 1.627903 -0.084989995 -1.0284923 -0.30934379 0.30069545 -0.096686155 0.20054303
0.14081497 0.5358383 -0.5267403 0.25187725 0.2090785 0.07353672 0.14757513 -0.36744285
-0.545642 -0.49005663 -0.0207453 -0.4237106 0.076156065 -0.274932 -0.66016865 0.7890621
-0.44193023 0.64392585 -0.2391824 -0.2158832 -0.7106839 -0.8823128 0.86737084 0.29242152
-0.11315086 0.16965787 -0.341638 -0.08141908 -0.3300911 0.7761552 -0.029043296 0.34621972
-0.72346735 -0.5500067 -0.43497 -0.8098725 -0.45328784 0.34913057 -0.38871226 -1.1972227
0.022128168 0.6086551 0.12093343 -0.4336177 0.42746237 0.20673144 0.45912978 -0.6311323
-0.22254659 -0.40384227 0.18413785 -0.14189409 -0.2993584 0.5955909 0.021681558 -1.270587
-0.07097931 -0.93332505 -0.40873268 -0.7029235 0.18303227 -0.630867 -0.2803824 0.20634763
0.07056555 -0.20201334 -0.23825054 -0.114815794 0.47395438 0.24869502 -0.22474445 -0.12524872
-0.6809589 -0.61573607 0.058584183 -0.96553606 0.38468164 0.001517207 0.06827585 -0.04433605
-0.1492185 -0.0767584 0.20959726 -0.13625304 -0.11656193 0.08902269 -0.0805365 0.062957026
0.2973398 0.033765085 0.026028754 -0.0037487717 -0.19249709 0.13208814 -0.107723586 1.8034207
-0.1486253 0.16110264 -0.08905993 -0.1567769 0.6453844 -0.30246234 -0.16259678 -0.4657809
0.4392698 0.12043464 0.2673639 -0.20298219 -0.03061677 -0.3083769 -0.4947919 -0.27855402

bias f4 [21]
00000000: 23e5 0f3f 66e1 a1bd 5baa 993f 43b4 89bf
00000010: a655 073e 077a acbe 908c 983f c7a6 8f3c
00000020: 32b2 fabd 8b82 a53f 1ae4 2f3e bf00 1fbf
00000030: dc82 15bf 5801 353f 0810 3fbf 2a2c af3f
00000040: 56df 0e3f b6e6 73bd 3d7b af3f 967b 56bf
00000050: 43c5 9f3e
0.5620901 -0.079043195 1.2005113 -1.0758137 0.13216266 -0.3368685 1.1917896 0.01753558
-0.12241019 1.2930464 0.17176858 -0.62110513 -0.584028 0.70705175 -0.74633837 1.3685353
0.55809534 -0.059546195 1.3709484 -0.8378233 0.31205186

weight f4 [21, 21]
00000000: 577f 66be d067 2fbf 57cc 44be b8b1 f2bd
00000010: d42f 42be 4964 7dbf fb06 35bf a068 00bf
00000020: f83c 61bf d08f 56be dd53 2c3d c8a0 0cbf
00000030: 18eb 89be 48aa eebe 725b 07bf 37f2 00bf
00000040: 7efe aabe caf3 20bf e2cd 78bf 8784 55bf
00000050: dd2c 36bf 1617 41bf 5d71 93be 8fa1 dfbe
00000060: 2797 ecbe d65e 33bf ae18 6ebe de4c c5be
00000070: 01d5 7dbf 3829 49bf 1b10 78bf fa80 b4be
00000080: e716 8abe d7af 23be 8c85 a7be 18a7 fabe
00000090: 5bbf e2be 5270 93bf dec9 c6bd c272 2ebf
000000a0: e19e fcbe eb36 f3be 8675 c8be 1e75 97be
000000b0: 4ca0 73bf 0e7b 94bf b762 c0be 0449 53bf
000000c0: 5425 6fbf ddd5 34bf f1dd 5bbe c53e 39bf
000000d0: aa63 2abf 24e4 83be dcae 45bf 8a3f afbe
000000e0: 336f 32bb 4512 23be 17ff e6be 3276 dbbe
000000f0: 83d1 3dbe fccc 4cbf ac9b 1fbe 36b2 4abe
00000100: c3f2 183e 6a75 93be b361 8dbe 2a9b 043f
00000110: 83b4 a13e 89a6 cabe 1ae9 cf3e d880 823e
00000120: 19dd c2bd 3669 f63c 23c1 c33f a1e6 6a3f
00000130: 5798 37bf a8ce 733e aed3 493e ada8 c53c
00000140: 6e9b 423f 5d39 dbbd 386b 323f 3301 bf3d
00000150: 1a12 06bf 5a0b 96bd 567a 70be 0cac 3cbf
00000160: 8883 d4be ae41 82bf 522b 81bf 6bd8 31be
00000170: 98a9 cc3e 62c8 83bf 7d90 66bf da18 2abf
00000180: d883 293f 3baf debe 5c86 c33e 52fb febe
00000190: cb32 2bbd c6fb 0bbf 22a5 ed3e 0b95 503f
000001a0: 4752 19bf ddaa 47bf 5636 3b3e a2a7 f4be
000001b0: c5fe 37bf 968d 4fbf 12a8 0ebf 23f3 b1bc
000001c0: 9689 6abf ec3d 313e f311 91be 17c5 e6be
000001d0: e8e6 54be bbff 1e3e 4ef4 a3be 4f6b 42be
000001e0: 029e 5fbf a100 77be 9d5c 5cbf 6c87 3cbf
000001f0: d515 a2bc 551b 2dbe 9a0f e6be 279d 8bbe
00000200: 1636 be3e fea8 3cbf a4bf eebe d18b 36bf
00000210: 7b0d 193e d55e 67be be90 78bf b487 e53d
00000220: 46ea f3be c999 48bf c7b7 71bf 3e94 f5bc
00000230: e26f 09bf 7f1d 84bf e698 31bd 87f8 10bf
00000240: 9072 4f3e 3636 2abf 0e67 85bf 5fbd 18bf
00000250: 8085 aebe 22f9 81be 85a1 3ebe 52ec 36bf
00000260: e5d7 18bf 0f5d 723e 3833 0cbf 7f66 33be
00000270: fd5d 54bf a5c9 12bf 735c e03d 6f4f 04be
00000280: 8cb5 22bf a4aa 89bd df7f 1abf 0197 67be
00000290: ea25 22bf c8e9 62bf b89b ea3d 56da cdbe
000002a0: ff5b fabe 1d29 8bbe e60c 55bf 479c 683e
000002b0: b164 75be 0548 483d 513a 91bf 9a31 18bf
000002c0: bf18 15bf 2a84 19bf 97f8 75bc 6d1b 4fbf
000002d0: b531 38bd c6c5 98be a9a7 4bbf b9de 40be
000002e0: c275 66be 98d4 48bf 4d79 a0be af01 08be
000002f0: 6e87 5ebe e897 d4bd 6341 a2be e4c7 7cbe
00000300: 8df2 61be dac3 dbbe 717e 99be e85f 873e
00000310: 620b 413f dc02 383c c709 6b3e 5199 7d3e
00000320: 3179 303f 8d1f 9b3e f9c7 e9be e6f2 8d3f
00000330: 080b 03bd 13df 143e 435c 503f ea40 9cbd
00000340: 1d8a 7cbe ad4f 40bf 3e17 61be 86d9 a4bd
00000350: ce54 e7be 7df2 27bf eb1c 58bf 1e88 dcbd
00000360: 8cff 503d cb80 19bf f7df cbbe b0b7 62be
00000370: aa8b ed3d 9b72 4b3e 422a a23e 3a77 4cbe
00000380: b0ba 97be c4ed 3abe 92d2 05bf 5b85 09bf
00000390: f3bf 9abe d373 1b3d fc23 f8bd abae 0a3d
000003a0: c28f d1be f794 98be 3d66 4dbf 9e1e 5fbd
000003b0: 34fa 963d 017e 0bbf 1053 79be 25da 17be
000003c0: dc94 17bf fc1c 84be a412 a9bd e0d8 4cbf
000003d0: b354 2cbf 71a2 52bf c5fd 58bf 9e80 74be
000003e0: c890 14bf 82be 2abf ee35 86be 1b3c 363e
000003f0: c15e 4e3e a8f0 203f 1043 16bf 9463 393f
-0.22509514 -0.6851778 -0.19218574 -0.118503034 -0.18963557 -0.9898115 -0.70713776 -0.50159645
-0.87983656 -0.20953298 0.042072166 -0.5493283 -0.26937175 -0.4661429 -0.5287391 -0.5036959
-0.33397287 -0.6287199 -0.9718915 -0.83405346 -0.71162206 -0.7542585 -0.28797427 -0.43677947
-0.4620907 -0.70066583 -0.23251602 -0.38535208 -0.99153143 -0.7857852 -0.96899575 -0.3525465
-0.26970598 -0.15985046 -0.32719076 -0.48955607 -0.44286618 -1.1518652 -0.09706472 -0.68143857
-0.49339965 -0.47502837 -0.39152163 -0.2958154 -0.9516647 -1.1600053 -0.37575313 -0.8253329
-0.93416333 -0.7063883 -0.21471383 -0.72361404 -0.66558325 -0.25759995 -0.7721994 -0.34228164
-0.0027226924 -0.15924938 -0.45116493 -0.42863613 -0.18536954 -0.8000028 -0.15586728 -0.19794545
0.14936356 -0.28800517 -0.276136 0.5179926 0.31583032 -0.3958018 0.4060753 0.25488925
-0.09514827 0.030079465 1.5293316 0.9175816 -0.7171683 0.23809302 0.19709656 0.024128282
0.76018417 -0.107043006 0.6969485 0.093264006 -0.5237137 -0.07326384 -0.23484167 -0.7370002
-0.415066 -1.0176294 -1.0091345 -0.17367713 0.3997314 -1.0295527 -0.9006422 -0.6644417
0.662168 -0.43493065 0.38188446 -0.49801117 -0.041796487 -0.5468105 0.4641505 0.8147742
-0.5989117 -0.7799509 0.18282446 -0.47784144 -0.7187312 -0.8107542 -0.55725205 -0.021722382
-0.9161619 0.17308778 -0.28334007 -0.45072243 -0.20791209 0.15527241 -0.32022327 -0.18986247
-0.87350476 -0.24121334 -0.86078817 -0.7364414 -0.019785801 -0.16904958 -0.44933778 -0.27268335
0.3715064 -0.7369536 -0.46630585 -0.7130709 0.14946549 -0.2259477 -0.9709586 0.11207524
-0.47639674 -0.7835966 -0.94421047 -0.029977914 -0.53686345 -1.0321501 -0.043358706 -0.5662922
0.20258546 -0.6648897 -1.0422075 -0.5966396 -0.34086227 -0.25385386 -0.18616302 -0.71454346
-0.5970443 0.23668312 -0.54765654 -0.17519568 -0.82955915 -0.57338935 0.10955133 -0.12920927
-0.6355827 -0.06722 -0.60351366 -0.22616197 -0.633391 -0.8863797 0.11455482 -0.4020564
-0.48898312 -0.27179804 -0.83222806 0.22715865 -0.23964192 0.04889681 -1.1345922 -0.59450686
-0.58240885 -0.5996729 -0.015012882 -0.80901223 -0.04496928 -0.2983839 -0.79552704 -0.18834962
-0.22505859 -0.7844939 -0.31342545 -0.13281892 -0.2173135 -0.10380536 -0.3169051 -0.24685627
-0.22065182 -0.4292286 -0.2997928 0.26440358 0.75407994 0.0112311505 0.22952949 0.24765517
0.68934923 0.3029751 -0.4566038 1.1089752 -0.031992942 0.14538221 0.8139078 -0.07629569
-0.24662061 -0.75121576 -0.21981522 -0.08049302 -0.45181888 -0.6560438 -0.84419125 -0.1076815
0.05102496 -0.5996215 -0.3981931 -0.22140384 0.115989044 0.19867937 0.31672865 -0.19967356
-0.2963462 -0.18254763 -0.5227443 -0.5371911 -0.3022457 0.037952255 -0.121162385 0.033857983
-0.4092999 -0.2980115 -0.8023413 -0.05447256 0.07371941 -0.5448914 -0.24348092 -0.1482931
-0.59211516 -0.25803363 -0.082555085 -0.80018425 -0.6731674 -0.82279116 -0.8476222 -0.23877189
-0.5803342 -0.6669694 -0.2621302 0.17796366 0.20153333 0.6286721 -0.5869608 0.7241757

bias f4 [21]
00000000: ff1d e0be ce2f 07bf 3222 31bf 367e 7f3e
00000010: 2920 b9be 85dd a3be 5ba6 26bf a836 b5be
00000020: 2016 01bf 99c8 5b3e f7d2 98be 6ad1 94be
00000030: 52b3 73bd e633 d7bb 3bd7 acbe 5a55 9abe
00000040: 1cb2 20be dc41 1fbf aafc 1fbf 48f1 d23f
00000050: 2326 e3be
-0.43772885 -0.5280732 -0.691928 0.2495049 -0.3615735 -0.32004943 -0.6509759 -0.35393262
-0.50424385 0.2146324 -0.29848453 -0.2906602 -0.059497185 -0.006567466 -0.33757958 -0.30143243
-0.15692943 -0.6220987 -0.6249491 1.6479883 -0.44365034

weight f4 [21, 21]
00000000: 0058 bebb fb28 38bf dcbb 0b3d db7b 0cbf
00000010: f72f 823d 5316 82bd 07ad a53e 9d8b c93e
00000020: bef1 7ebe f0f5 f83d e958 323c 3b7d 9d3c
00000030: 9f43 373e 153e 1a3f e4ef 7c3e 3812 c4be
00000040: b2ab 00bf d5dc 7c3e 4982 04bf a7f7 803f
00000050: 5bee 1d3e cc0c 66bf ccae 093f 93c1 353f
00000060: c54f dd3d 7c60 c03e f742 513e 6e1f 9f3e
00000070: 8aa1 9a3e 807e 9ebe 2c9f da3d 00aa 813e
00000080: 8476 f0bc 96a0 c53e 261a 45be f54d da3e
00000090: 2b80 4e3f d096 c43d a9ee 323e f968 1d3f
000000a0: 5d7a 13bf 0d25 06be b03f d63d b658 15be
000000b0: 413e e2bd 1bc0 ce3e 17ee b1be 798c 1fbf
000000c0: fa39 033f 8042 7bbe d139 b3be ec2d 3abd
000000d0: dfbf 95bd 5c90 173e 6ff8 c33e 31aa e9bd
000000e0: 09de bb3e 3d7a 03bf 8f4e 733f 3bd7 503f
000000f0: f3bc 45bf bd2c 9c3d 2310 45bf dc6a 01bf
00000100: 5624 523e b443 9c3c f12c 783f 8285 f1bd
00000110: 4fac 06ba 0c01 c43e 779d f8bd ffef dabe
00000120: 1ab8 3e3f 9915 e63e b4f5 11be 0a15 0bbd
00000130: 5954 4e3f 24db 083f 9eef 3f3f cfab 293f
00000140: 55ed 0ebd 4c80 41be 153f c13e 1326 03bf
00000150: dcab 69bf c371 9abe a322 2fbf c902 1cbf
00000160: d75e 0fbf 6797 30bf e423 d9be 81d3 7ebe
00000170: d315 4abe 34c8 30bf 9d50 6dbe 12f0 72be
00000180: 0246 57be 4602 91be 8c04 fabc ac34 1abd
00000190: 7b23 193e 9949 853e 0512 9f3e cd7d cc3e
000001a0: 81d8 c5bd acbb 2e3f d8b2 233f 2f63 8e3e
000001b0: aa35 1ebe 1faa 943e a6fc 7b3f 1523 1a3e
000001c0: 0ccc 293e 2ef0 ab3e 18ba 893e 4366 10be
000001d0: e3b2 17bf 474a 173f 7a18 93bf 29dc df3e
000001e0: 6bf3 553e f43a d6be dd65 343e 7dc8 ea3e
000001f0: 8aff c1bf 2933 b23c fb12 02bf 361b aabd
00000200: 20f3 fcbe 7306 1f3f ae19 773f 699b 1a3e
00000210: b59c b93e 3d35 6c3f 44e7 b2bd 0c3f 4d3f
00000220: d9d4 2b3e aa3e 19bf fd4b e83e 0d21 83be
00000230: 1306 2d3f 0fff 683f beac 8abf 2077 953e
00000240: 1c37 4ebd a466 39bf bd47 013f e010 42bf
00000250: 47ad e53c 3610 283e a667 003f 6ff6 9fbb
00000260: 09eb 1dbf 5f5d 58bf c0e9 29bf b431 2c3e
00000270: ad2a 9c3e 456c eb3e e65d a2be 4fcf 94be
00000280: fe74 50be bb2d bbbe b719 df3e 9e92 9dbe
00000290: 19ca d03e 9a6f dd3e 6054 c5be 1cc5 32bf
000002a0: 8191 f53e dbcb 1b3f 631d 813f 58bf e33d
000002b0: 0dee b0bc ed4f 753f a8e8 143f 2076 ea3e
000002c0: 68ff 973e 2ea2 0dbb c4bb aa3e e603 1c3f
000002d0: 64cb c73e 47cc 5bbe 93aa e93d 612b c93e
000002e0: b99f 413f fe89 0d3f b7f4 573e f185 733f
000002f0: fb5e f63d b402 6abf 4bbd b3bd 8797 773e
00000300: 7689 b3bd c142 833e 3fb3 3ebd f563 3bbf
00000310: c456 abbe 56ff d2bd f914 18be a47a a53e
00000320: 6125 753e f64c 593e 9bc2 2f3e c2d0 a63d
00000330: f798 fe3e fdca 74be 9d5b bc3d f320 ab3e
00000340: 8639 bcbf fc49 64bf 90f7 57bf e12a 1abe
00000350: 1199 17bf 1855 0b3d 180f 02be a8d7 ce3e
00000360: 77f6 63bd f61c 11bf 92be 4dbd dbda 1f3e
00000370: 4a43 553f 9699 25bf ee7f 003f 23d2 2cbf
00000380: 2f33 e9be 5be6 053f 398b a7be b75e 143e
00000390: 2fb1 ffbe fecf 40bf e61a ccbe 8163 6f3e
000003a0: 3736 df3e 818c 213f 79fb ef3e ad85 8dbe
000003b0: f1cc bbbe 1d83 d1bb 05ea d53d 1ba3 343e
000003c0: 35df f23d cfed 3ebd 0e12 13bb 0473 643d
000003d0: 51b5 073f 948f 273f 8329 963e 2f8b ce3e
000003e0: f95b 943e 2ab6 283e ff9c 383f 816e 193d
000003f0: 1c1c 0a3f 8dc7 fb3d 65e0 a63d 01fa 35bf
-0.0058088303 -0.7193753 0.034114704 -0.5487649 0.06356805 -0.06351914 0.32358572 0.3936433
-0.24896905 0.12156284 0.010885456 0.019224754 0.17896889 0.6025098 0.24700886 -0.3829515
-0.50261986 0.24693616 -0.517613 1.0075577 0.15422957 -0.89863276 0.53782344 0.70998496
0.108062305 0.37573612 0.20435701 0.31078666 0.3020137 -0.30955887 0.10674891 0.25325012
-0.029353388 0.3859908 -0.19248256 0.42637601 0.8066432 0.09599078 0.17473854 0.614883
-0.57608587 -0.13100071 0.10461366 -0.14584622 -0.1104703 0.4038094 -0.3475196 -0.6232372
0.5126034 -0.24537086 -0.35005048 -0.04545395 -0.07311987 0.14801162 0.38275477 -0.114094146
0.36692837 -0.51358396 0.95041746 0.81578416 -0.7724144 0.07625721 -0.7697775 -0.5055368
0.20521674 0.019075252 0.96943575 -0.11793043 -0.00051373703 0.3828205 -0.12139409 -0.42761227
0.74499667 0.44938353 -0.14253885 -0.03395561 0.80597454 0.5345938 0.74975 0.66277784
-0.034894306 -0.18896598 0.3774344 -0.5122997 -0.9127786 -0.30164918 -0.68412226 -0.6094175
-0.5600409 -0.6898102 -0.42410195 -0.2488537 -0.19734888 -0.69055486 -0.23175283 -0.23724392
-0.210228 -0.28322047 -0.030519746 -0.037647888 0.14954941 0.26032713 0.31068435 0.39939728
-0.096604355 0.68255115 0.6394477 0.27810046 -0.15450159 0.29036042 0.98432386 0.15052445
0.16581744 0.3358168 0.2689979 -0.1410151 -0.59257334 0.59097713 -1.1491845 0.43722656
0.20893638 -0.41841853 0.17616983 0.45856085 -1.5156109 0.02175291 -0.5081021 -0.08305971
-0.4940424 0.62119216 0.9652356 0.15098347 0.3625237 0.92268735 -0.08735517 0.80174327
0.16780414 -0.5986124 0.45370474 -0.25611153 0.67587394 0.9101419 -1.0833967 0.29192448
-0.050345525 -0.7242224 0.5050009 -0.75807 0.028036727 0.16412434 0.50158155 -0.004881672
-0.6168676 -0.84517473 -0.663723 0.16815835 0.3050131 0.4598104 -0.31712264 -0.29064414
-0.20357129 -0.36558327 0.43574306 -0.30775923 0.40779188 0.43249208 -0.38540936 -0.69832015
0.47962573 0.60857934 1.0087093 0.1112048 -0.021597886 0.9582508 0.58167505 0.45793247
0.29687047 -0.002161156 0.3334638 0.6094345 0.39022362 -0.21464644 0.114094876 0.39290908
0.7563434 0.55288684 0.21089445 0.95126253 0.12029835 -0.91410375 -0.08776339 0.24178897
-0.08766453 0.25636867 -0.04655766 -0.731994 -0.33464634 -0.10302608 -0.1485175 0.3232013
0.2394004 0.21220765 0.1716408 0.08145286 0.49726078 -0.23905559 0.09197161 0.33423576
-1.4705055 -0.8917539 -0.84362125 -0.1505542 -0.59217936 0.0340167 -0.1270107 0.40398908
-0.05565497 -0.56684816 -0.05023057 0.1561083 0.833058 -0.6468748 0.50195205 -0.67508143
-0.45546862 0.5230462 -0.32723406 0.14489256 -0.49939868 -0.7531737 -0.39864272 0.23377801
0.4359605 0.63105017 0.46871546 -0.2764105 -0.36679795 -0.0063938037 0.10445026 0.17640345
0.118589796 -0.04661351 -0.0022441181 0.05577375 0.5301104 0.6545346 0.29328546 0.40340564
0.2897642 0.1647574 0.7211456 0.0374589 0.5394914 0.12293921 0.081482686 -0.710846

bias f4 [21]
00000000: 0af0 ed3e 9031 283e b91f 113e 1ae4 9d3e
00000010: 76c5 d8be ca93 68be 1068 eb3e bfda 353e
00000020: ee15 d43e 0710 88bf 3406 29bf 868b 993e
00000030: 0c72 9fbe 9656 e2be 4a5f 3c3f d86a c53e
00000040: 1145 b2bd fcdc 1a3f c5d4 f83e 164d 563d
00000050: 2fb9 1cbf
0.46472198 0.16425157 0.14172257 0.3083809 -0.4233815 -0.22712627 0.4597783 0.17759226
0.4142298 -1.0629891 -0.6602509 0.2998926 -0.31141698 -0.44206685 0.735829 0.38558078
-0.087045796 0.60493445 0.4859983 0.05231961 -0.6122007

weight f4 [21, 21]
00000000: 1de3 6cbe dedc 02be 5c9b 123c af68 3bbe
00000010: ddd3 94be 12c6 cfbe bade 57be e32e 093f
00000020: 0ab0 473e 565c 20c0 f129 fa3e 3b0d 033e
00000030: 7df4 3cbe 8cae 0ebe fdb9 1a3e 94b5 6fbe
00000040: 5900 8bbe 68ea a93d d778 f03e 054f 6e3d
00000050: b5b7 abbe ccba 303e 2373 1dbf f0cd 64be
00000060: 8cb6 083e 715a 663e 776f 06bf cf70 56bf
00000070: 81c2 49bf 5ee0 153f 3c63 5ebf f60e b1be
00000080: 8f9e 253e 3000 0d40 9f11 b8be feec 6b3f
00000090: d22c e43e 2eb8 943e 2c3b dd3d ae21 1ebe
000000a0: 15f6 22bf 89b8 96be d8ef 723f 6d7f a33e
000000b0: 82b7 383f 2b2b 97bd f0ec d6be 7342 15be
000000c0: 30e7 6dbe 79c5 8b3f 92ec 27bf 12ed 67bf
000000d0: 05c6 58bf 542d 0e3e 8832 85bf 234a f9be
000000e0: c6e3 823e 732b e63d c7f9 29bf 336b b83e
000000f0: a16e e43d ee44 1d3f cb50 37bf 9e4a 303e
00000100: 78fa b2be 93fc ce3e fac0 2b3e 1f20 13bd
00000110: 54a1 7bbe 279d 2abe 25c8 bebe 0ebb 1bbe
00000120: 34b4 ad3b 394e ae3d 9900 e13d e93a b53e
00000130: 3b62 373e 0d7d 323f 5716 babd d2e3 79bc
00000140: ea73 abbe a985 d3bd 031a 3a3e 50d2 7cbc
00000150: 977d ae3e e66d 3e3f 4451 983e 9242 e9bd
00000160: 3e53 17be 4a5a b53e 51b1 64bf fc04 243f
00000170: d4f1 0cbf 5e90 853e e481 93bf 3b53 99bd
00000180: ba89 bebe 3b22 843e ddc6 573f 05e6 153d
00000190: 2a49 0cbf cc03 f23d bafb a7be 8acd 003e
000001a0: 7d22 313f 0b02 133f 4df2 a1bd 60e2 fb3e
000001b0: adb8 d9be fb00 62bf bbe4 6abf 86c6 88bf
000001c0: 6cb6 23be 3bf9 673f d901 5e3c a382 19bf
000001d0: 58df 9f3e 9b97 1b3f 495f 4c3e cf9c 993e
000001e0: 8448 0a3e c2c4 4cbf f18b ce3e 603f a33e
000001f0: 0ca0 733f a8cf 54be d0d8 22bf 78b6 59bf
00000200: 51e3 f3bd 7a5a a9bd d06a 973e ea1a 993e
00000210: 637e c7be da6c a63d 802a b03e 9b93 213e
00000220: 0552 183e e026 08bf e786 443d ac1d 953e
00000230: 7503 8cbe b0ce 93bf b23f 5ebd 18b9 3fbf
00000240: 7f5c 65bd d142 96bf 6249 8c3d 059a 4ebf
00000250: e27d 42be 0faa db3d b7bb 313e 20e6 fabe
00000260: bc96 32bf 6e68 c6be f01a 8dbb c6ce a1be
00000270: b5a1 913d 0fb8 0cbf de84 7abf d8ec ad3e
00000280: 8681 a73e 3533 2cbd d089 48bf b6af d1be
00000290: ba44 05be 4a38 95be b8cc 08bd 842c 4a3f
000002a0: 45fb d5be aaff 563e 6c39 efbd 4a7d afbe
000002b0: 815a 003d 9a89 83be 3e47 8cbe d17c 063e
000002c0: 43fd 79be 8a52 0e3f 20d8 4ebf b87c b4bd
000002d0: f9fa 3c3f e7a5 f13e 3434 0c3c 2ace 46be
000002e0: 62f3 02bf de38 75bf 8b19 26bf 78e7 663c
000002f0: a4c7 073f fb4c 10be ffed cbbd 4896 32bf
00000300: 3f7e 0e3f e8a5 523e 7cf2 3b3e b78d c2be
00000310: 94d2 f23e 6464 5fbf 6c57 513e 9036 863e
00000320: 5f0e 35bf d79b 07be 79da f23d 6763 81be
00000330: 4ed8 2e3e f053 2dbf 481b 963e 2ccf e63e
00000340: 84cb a6be 6419 983f 82b9 7e3f 5981 92bd
00000350: e00f 1b3e 61af 27bf 4c10 d7be 5d92 37bf
00000360: e185 e53d abfd cb3d 89b0 3dbe 5c27 10bf
00000370: f5c8 7dbe 664e 683d b530 6a3f 3252 0a3e
00000380: 82a2 6d3f e819 833f eab9 aabe b476 1abd
00000390: 3b21 03be 8b5c 463f fd01 81bf ad3a 3c3c
000003a0: dc25 343e ce14 093f f75e 65bf 069f d43e
000003b0: e20d 20bf 57bb e2bd 8ed0 053f 4095 05bf
000003c0: 7218 93bc de5b 06bf f7e9 a7be 1fb7 633f
000003d0: 8c91 b7bd 8067 753f 4ccb 33bf f35e 7fbf
000003e0: 0ecc 77be 3fd1 203e 84c6 3c3d 1904 e63e
000003f0: f27e 933f db61 1ebe 4f05 d83c e909 1dbe
-0.23133512 -0.12779567 0.008948173 -0.18301652 -0.2906789 -0.40580803 -0.21081057 0.5358717
0.19500747 -2.5056357 0.48860124 0.12798016 -0.1845264 -0.13933772 0.15110011 -0.2340911
-0.27148703 0.082966626 0.46967193 0.058180828 -0.33538595 0.17258757 -0.6150381 -0.22344184
0.13350886 0.22495438 -0.5251383 -0.8376588 -0.78812414 0.5854548 -0.8687017 -0.34581727
0.16173767 2.2031364 -0.35950944 0.92158496 0.44565445 0.29046768 0.10802302 -0.15442535
-0.6365674 -0.29437664 0.9489722 0.31933156 0.7215501 -0.073812805 -0.41977644 -0.1457613
-0.23232722 1.0919639 -0.6559535 -0.90596116 -0.84677154 0.13884479 -1.0406046 -0.48689374
0.25564402 0.11238756 -0.66396755 0.36019287 0.11153913 0.61433303 -0.71607655 0.17215964
-0.34956717 0.40427074 0.16772833 -0.035919305 -0.2457326 -0.16661511 -0.37262073 -0.15208074
0.005301023 0.085110135 0.10986442 0.35396507 0.17908566 0.6972206 -0.09086292 -0.0152520705
-0.33486873 -0.10328228 0.18173985 -0.015431002 0.34080192 0.7438644 0.297495 -0.113896504
-0.14777848 0.35420448 -0.89333063 0.64070106 -0.550565 0.26086706 -1.1524014 -0.07486578
-0.37214452 0.25807366 0.84287816 0.036596317 -0.5479914 0.118171304 -0.3280924 0.12578407
0.6919325 0.5742499 -0.07907543 0.49196148 -0.4252371 -0.88282746 -0.91755265 -1.0685585
-0.15987557 0.9061467 0.013550245 -0.5996496 0.31225085 0.60778207 0.19958223 0.30002448
0.13504225 -0.7998773 0.40341142 0.3188429 0.9516609 -0.2078234 -0.6361208 -0.8504405
-0.119085915 -0.0826921 0.2957368 0.29903346 -0.38963613 0.081262305 0.34407425 0.15778963
0.14875038 -0.5318432 0.047980215 0.291242 -0.27346388 -1.1547451 -0.054259963 -0.74891806
-0.055996414 -1.1739141 0.06849934 -0.80703765 -0.18993333 0.107257955 0.17356764 -0.49003696
-0.6976125 -0.3875155 -0.0043061897 -0.31603068 0.07110921 -0.5496835 -0.9785899 0.3396976
0.32716006 -0.042041022 -0.78335285 -0.4095437 -0.13014498 -0.29144508 -0.03339836 0.78974175
-0.41793266 0.20995966 -0.11680874 -0.34275275 0.03133631 -0.2569092 -0.27398103 0.13133551
-0.24413018 0.55594695 -0.8079853 -0.08812851 0.73820454 0.47196886 0.008557368 -0.19414583
-0.5115262 -0.957899 -0.64882725 0.014093272 0.53039 -0.14091866 -0.099575035 -0.6976056
0.55661386 0.205711 0.18354219 -0.37998745 0.47426283 -0.8726256 0.20443505 0.26213503
-0.70725054 -0.13243042 0.118580766 -0.2527115 0.17074701 -0.67706203 0.2931769 0.45079935
-0.32577145 1.1882749 0.9950181 -0.07153577 0.15142775 -0.6550198 -0.4200462 -0.7170771
0.11207176 0.09960493 -0.18524374 -0.5631006 -0.2478369 0.05671539 0.9148057 0.13507918
0.9282609 1.0242281 -0.33344966 -0.03771086 -0.12805645 0.7748496 -1.0078732 0.011488599
0.17592567 0.5354737 -0.8959803 0.41527575 -0.62521183 -0.110708885 0.52271354 -0.5218086
-0.017955992 -0.5248393 -0.3279569 0.88951296 -0.08963308 0.95861053 -0.7023208 -0.99754256
-0.24198934 0.15704821 0.046087757 0.44925 1.1523116 -0.15467016 0.026369719 -0.15335812

bias f4 [21]
00000000: 010c f6bd 964a 78be f8b9 d6be d308 03be
00000010: 7222 12bf a64d ddbe a33b 2fbf 9d31 5bbe
00000020: 314d 9ebe cd0e 26bf 75fd cebe c645 21bf
00000030: 0a7b acbe e5ed f0be 8621 1abf fb1b aebe
00000040: 08d0 02bf c199 95be afc4 f5be 1559 cf3e
00000050: 232f 3a3e
-0.12014008 -0.24247202 -0.41938758 -0.12796335 -0.5708381 -0.43223304 -0.68450373 -0.21405645
-0.30918267 -0.64866334 -0.40427747 -0.6299709 -0.3368762 -0.470565 -0.602074 -0.34005722
-0.5109868 -0.29218867 -0.4800162 0.40497652 0.18182044

weight f4 [4, 21]
00000000: aefa 04bf a950 8f3f f3de 31bf b9b8 cb3e
00000010: 19d7 ad3e 462f 993e e996 e3bb c0cd c9be
00000020: 13ee a6bd 776c 81bd 1732 58bd 039d bc3d
00000030: afef cbbd 962c f43e 1d92 893d 253a bdbe
00000040: 4d63 94bb 3d2d b13e 4443 043d 7fdd 0e3f
00000050: 7cdb e53e 8176 76be 78a2 1abf 78c9 013f
00000060: d173 58bd 31c4 b0be 5888 0cbe 91f5 373e
00000070: 8ff8 c83e dcd6 1e3b 07a4 b43e 7eaa 533f
00000080: 3a5c a13e 3453 133f f06c 863e 1a5b fc3e
00000090: a6de 3ebd ff1c 493e 584a c7bd 5443 993e
000000a0: 6d0d f43e 0373 c33e 62f4 bc3f 157e 42bd
000000b0: b8a2 8fbd 1977 bdbd 3467 60bf 1bd2 9abf
000000c0: e567 0dbf b450 f93d 7979 13be 0450 eabe
000000d0: fd41 8abd a034 a5bd 6647 5cbe bd76 f2be
000000e0: e9ac 43be 9d9c 973e ddf6 aebe c856 7cbe
000000f0: a637 493d 7d53 66bf 2b9b 5ebf 8c37 c1be
00000100: b2c8 08bf a539 edbf 2644 b0be 449c ffbe
00000110: 7f3a 1b3f 6e8c cc3d c5be 743e 3c93 283f
00000120: 1cd7 b4be e012 1ebf 7e3b eabe 3f12 f8bf
00000130: 4bf2 89be 0691 afbe 470c 723f ce7e ccbe
00000140: 00a1 803d aa05 3d3f f245 233e 90a5 a1bf
-0.51945007 1.119649 -0.6948082 0.3978937 0.3395317 0.2991888 -0.00694548 -0.39414787
-0.08150878 -0.06319516 -0.052782144 0.09209635 -0.099578254 0.47690266 0.06717322 -0.36958423
-0.004528439 0.34604827 0.032290712 0.55806726 0.44894016 -0.24068643 -0.6040416 0.5069804
-0.052844826 -0.34524682 -0.13723886 0.1796477 0.39252135 0.0024236953 0.35281393 0.82682025
0.31515676 0.5754883 0.26254988 0.49288255 -0.046599053 0.19639967 -0.09730977 0.2993418
0.47666493 0.38173684 1.476208 -0.047483522 -0.07013458 -0.09251232 -0.87657475 -1.2095369
-0.55236655 0.12173596 -0.14401807 -0.45764172 -0.067508675 -0.08066678 -0.21511611 -0.47356215
-0.19108929 0.29611674 -0.34172717 -0.2464248 0.049125336 -0.89971143 -0.8695552 -0.3773769
-0.53431237 -1.8533217 -0.34426993 -0.4992391 0.6063613 0.09987722 0.23900898 0.6584966
-0.35320365 -0.6174755 -0.45748514 -1.9380568 -0.26942667 -0.34290332 0.94549984 -0.39940494
0.06280708 0.7383677 0.15944651 -1.2628651

bias f4 [4]
00000000: 9702 d6bf 8d46 a2bf ca63 9dbe 1794 2a40
-1.671954 -1.267778 -0.30740196 2.6652887
