data/savings/Pytorch_model.pt (torch, 12556 bytes, 10 tensors)

weight f4 [21, 20]
00000000: 0c37 03be 1c13 88be 8deb 933e 65bd 443f
00000010: c39a c13e dd80 d7be 853d 913d 28f4 cdbe
00000020: 670d 0a3e 4e60 83be d157 c53d 2197 8ebe
00000030: 3a2a 883d 5821 8abe 428f 463e aabf e3be
00000040: da91 abbe c8b1 c2be 9ed0 3ebf 763a 0ebf
00000050: abb3 05bf f202 953e 4647 89bf 95ed 173e
00000060: c6a7 0abf c9a3 d2bd 8a52 403e 12d6 c93e
00000070: 38d7 81be 14d0 d73e a3c4 0fbf 374c 22be
00000080: d6ad 503e 1f1a 6fbd f74c 39be cbab 81be
00000090: d453 6cbe d31b 33be 7fab 9abd 4b83 98bf
000000a0: d5f2 98be 6e50 053e 5189 d13e b598 503e
000000b0: daea febd ee01 1e3e a5e7 853e dced a03d
000000c0: 1c0b 233e 0e03 413d 37f2 35be 9b0e b4be
000000d0: 8ac6 adbe e5b1 20be a0b9 a83e fe27 ecbd
000000e0: 12be 143e a9bc af3e 20f2 0c3d e140 3bbf
000000f0: c0ed da3e 8662 053f e7d9 35bd cac7 893e
00000100: 67f3 81be a91a 553e cbc0 433e 68e6 7ebe
00000110: ebc1 c9be 49a4 213e 24da 54be 4a73 103e
00000120: 8e47 c8bd 3847 8fbe 48d5 3e3e 1e4d 203e
00000130: 4658 2d3d 71c4 ea3e ada4 023e 6e0c d6bd
00000140: ceb5 963d 9eab 703e 839a 75be 2b03 5a3f
00000150: 3bb8 86bd e36c 423f 708b 67bc 2fc6 cbbd
00000160: 335d bcbe a99c 8f3e 77f5 253f 7561 92be
00000170: 7b2b 5fbe 1285 1dbe 3241 193d 8d15 b5bc
00000180: 7b68 153f 53ee 88bd ca7f 183e 5c0b a5bf
00000190: 664d 0dbf b843 93bc 7159 903e 5078 053d
000001a0: 6998 bcbe 4fac a93e e36c 07bf 57e6 ec3c
000001b0: 4f4d 68be 8675 67bf 1b7c e6bd e594 3bbe
000001c0: b7b9 31bf 9e91 87be 026d 98be c923 a03d
000001d0: 8b5b dd3d 44d2 023d 9427 b1bd 3035 96bf
000001e0: c5e6 c63e 840b 663d aee0 083e e4ef a7bc
000001f0: 7649 5a3e ae69 b4bd 20f3 ed38 f3a5 c53c
00000200: 85c8 d3bc 3d4a b33c 3cdf a8bb 162c 96bd
00000210: b918 f93d cdc4 9e3d 93d2 14be cc05 cebd
00000220: c544 26bd f411 83bd bb7d eebd 6967 8c3f
00000230: c219 e9bd 5415 463f 6e0e 32bf d516 78bd
00000240: 40d6 cebd e0a1 803e b331 95be 2138 503e
00000250: 5af3 65be 6677 afbe 02af 523f 87ae e2bd
00000260: 31b0 1abf eb06 06bf 4c9b 9c3e 99c1 af3c
00000270: d6e1 243d 42a5 8abf 6634 a7be e5f9 ecbe
00000280: 1f94 8fbe 32cc 3b3f 133f fc3d 5078 553f
00000290: 8e94 923d 9e8d 94be 3934 83be b2bb ba3e
000002a0: 24d2 7c3e 4fc8 9a3d d678 3ebe cc04 f03d
000002b0: 2cba e2be 971b 0bbd c475 e4be f616 c73d
000002c0: 3fd1 6e3d 1a09 a1bd 7999 b8be 1388 c7be
000002d0: fc1f 0fbf 92c1 463d 6ed7 083e ebcf 82be
000002e0: f7ea 8f3d fa64 113c e5e5 b53e 1e75 9fbf
000002f0: 68c2 bb3e 4e08 0c3f 8507 5bbf 118b b2be
00000300: af7f f3be 55be fc3e 7758 4c3e a980 df3e
00000310: 14a1 7dbd 5858 183c e18d 693e e5eb 91bf
00000320: 96ee ea3d 887a d43e 1716 b23e 470d c73e
00000330: d88a a3bc b82c e83e e703 28be 6626 173f
00000340: f1e4 1bbe 70fc b8be f542 153f 460f a83e
00000350: 1e78 063f 99b0 84be 3f53 0c3e 045b 24bf
00000360: 76d8 773d 52af 2cbe 6cd1 c63b fac9 7e3f
00000370: 0518 d83e a73c 603f 1366 8e3e 1446 87bf
00000380: 5512 6d3e 0ef8 bbbd dcb3 d0bd f8b0 7ebe
00000390: 4963 e1bc d8b7 e33e b003 9cbe a551 12bf
000003a0: 1c1e 8cbd 73b7 32be 28c7 b53e fac9 943e
000003b0: df89 6dbe 45ff 143f 104c 63bf 5688 8ebe
000003c0: 2184 813e c402 053e 2050 74be dc55 79bd
000003d0: 335a a5bd 23d2 ac3d baf6 333d 3048 77be
000003e0: 22cf 40bd 4281 963d 67cb c1bd 378d 693e
000003f0: ff90 a53d 6ca3 a13c e36f 063e 8fc6 433e
-0.12813967 -0.2657708 0.28890648 0.76851493 0.37813386 -0.42090502 0.07091812 -0.4022534
0.13481675 -0.25659412 0.0963589 -0.27849677 0.06648679 -0.26978564 0.19390586 -0.44482166
-0.33509713 -0.3802626 -0.74537075 -0.55557954 -0.52227277 0.2910381 -1.0724876 0.14836724
-0.5416225 -0.10285146 0.18781486 0.39421135 -0.2535951 0.4215094 -0.5615942 -0.15849386
0.20378813 -0.05837452 -0.18095766 -0.2532638 -0.23078853 -0.17491083 -0.075522415 -1.1915067
-0.29872766 0.13018963 0.40925077 0.20370753 -0.12447138 0.15430424 0.26153293 0.07857868
0.15922207 0.047122054 -0.17768179 -0.35167393 -0.33940536 -0.15692861 0.3295412 -0.115310654
0.14525631 0.34323624 0.034410596 -0.7314587 0.42759514 0.5210346 -0.04439726 0.2691024
-0.25381014 0.20810951 0.19116513 -0.2489258 -0.3940576 0.15785326 -0.20786339 0.1410648
-0.09779273 -0.27984023 0.18636048 0.15654418 0.042320512 0.45852998 0.12758131 -0.104515895
0.07358895 0.23502967 -0.23984723 0.85161084 -0.06578108 0.759474 -0.014132366 -0.0994991
-0.36789855 0.2804921 0.64827675 -0.2858998 -0.2179393 -0.15382794 0.03741569 -0.022105003
0.5836255 -0.06686082 0.14892498 -1.2894092 -0.55196226 -0.017976627 0.28193238 0.032585442
-0.3683503 0.33139274 -0.5290052 0.028918428 -0.22685741 -0.904137 -0.1125414 -0.18318518
-0.69424003 -0.26478285 -0.29770666 0.078193255 0.10808476 0.031938806 -0.08650127 -1.1734982
0.38847938 0.056163326 0.13366958 -0.020500131 0.21317086 -0.08809219 0.00011346326 0.024126982
-0.025852451 0.021885986 -0.0051535647 -0.073326275 0.121629186 0.077523805 -0.14533453 -0.100596994
-0.040592927 -0.06399909 -0.11645075 1.0969058 -0.11381866 0.77376294 -0.6955327 -0.06056865
-0.10099459 0.251235 -0.2913948 0.20333911 -0.22456113 -0.3427078 0.8229829 -0.11068445
-0.60425097 -0.52354306 0.30587232 0.02145462 0.040254436 -1.0831683 -0.32657164 -0.46284404
-0.28042695 0.7335845 0.12316718 0.8338671 0.07157241 -0.29014295 -0.2562578 0.36471325
0.24689537 0.07557737 -0.18600783 0.11719665 -0.44282663 -0.03396186 -0.44621098 0.09721176
0.05830502 -0.07863064 -0.3605459 -0.38971004 -0.5590818 0.048524447 0.1336343 -0.25549254
0.07027238 0.008874172 0.35526958 -1.2457616 0.36671758 0.5470017 -0.8555835 -0.34871724
-0.47558352 0.49363962 0.19955622 0.43652847 -0.061921194 0.009298407 0.22808029 -1.1400114
0.11471288 0.41499734 0.34782478 0.38877317 -0.019963667 0.45346618 -0.16407739 0.59042966
-0.15224053 -0.36130095 0.58305293 0.32824153 0.52527034 -0.25915983 0.13703631 -0.6420138
0.060509168 -0.16863754 0.0060674455 0.9952694 0.42205825 0.8759255 0.2781225 -1.0568261
0.23151524 -0.09178172 -0.101905555 -0.24872196 -0.027513163 0.444762 -0.30471563 -0.5715583
-0.068416804 -0.17452793 0.35503507 0.29060346 -0.23197125 0.5820201 -0.8878794 -0.2783839
0.2529612 0.12989336 -0.2385869 -0.060872898 -0.08073845 0.08438518 0.04393647 -0.24148631
-0.047072537 0.07348873 -0.09462624 0.22807775 0.080842964 0.019731246 0.13128619 0.19118713

bias f4 [21]
00000000: f50a 3a3e 9b68 a3be a477 9cbf 78ec 3dbf
00000010: ad4b 10be e003 883e 2aa7 b9be 30ec f73d
00000020: 9dbd 82bf 3e77 bb3e f057 24bf ca25 f3bd
00000030: 85a0 2ebe 28d9 27bf 7389 04bf bc46 d3bd
00000040: 3e49 a53e 1c7f 52bf 06d6 433f a9bb 823e
00000050: eff3 d4be
0.18168242 -0.31915745 -1.2224011 -0.7418895 -0.14091368 0.26565456 -0.3626035 0.12105596
-1.0214115 0.36614412 -0.6419668 -0.11872442 -0.17053421 -0.6556573 -0.5177223 -0.10316226
0.32282442 -0.82225204 0.7649845 0.25533798 -0.41592357

weight f4 [21, 21]
00000000: 51af 8abe 8d9f 293f d7ce 823e d105 233f
00000010: 6e31 d53d c8c2 ae3e 82c9 173f 3896 463f
00000020: 5c26 7a3f 9972 713f 6c59 1a3e bd4b 4f3f
00000030: ec09 2a3f 5b46 563f 39c6 473f 388d f43e
00000040: dd3d 8e3f 5266 213f f6f2 f03e 9d76 f3be
00000050: 69d6 853f d5ee 4bbf 7d29 47bf 73bc 10be
00000060: 97d0 efbe e4ea d9be 97a6 97bd 35ac 36bf
00000070: c7fd ddbe 9a98 c0be be25 21bf 89af fdbe
00000080: 283f 04bf e69e 6cbf 2703 10be 01ff debe
00000090: fe10 91bf 9514 41bf 8769 99bf 2781 a3be
000000a0: e481 52bf 3024 78bf f3d1 acbf c157 f63e
000000b0: fd01 efbd 9423 98be ffda 103e 4f95 723e
000000c0: f3ac 23be e9cc 4a3f 1edb e8be b42d 093e
000000d0: 872c 613d 2c24 603e f019 50bd c970 38bc
000000e0: e702 f03e 32d7 3a3f b846 22bd c4f5 afbe
000000f0: 4cee 303e 25ac 0b3e 4540 d2be c576 3bbe
00000100: 7504 7cbd b949 0e3f 8d17 9c3e fa11 823d
00000110: cfa1 523e 0f1f 353f 2042 693e 4f5e 913d
00000120: c778 473e f71b ba3e 1203 6a3e dce7 d13e
00000130: 672b cc3e a1ad 093f be18 6a3c d275 6b3e
00000140: 1ffb 913e 8601 27bd 96e9 253e 9bac 033f
00000150: 980c 823e 693f 403c 8b25 e73e ed33 ecbd
00000160: 32bc 9ebe 2875 6abe b005 b13e 906c 063d
00000170: e93b a13e c967 7d3c 12ab 003f fd8e 18be
00000180: 4e3e 513f 9653 2b3f 403c ba3e 813a 9ebd
00000190: 4dd2 b13e 6fdf e93e e6b4 0c3e 161a 61be
000001a0: 330e 3d3e 13a2 88be 9a35 69bf f43a c03e
000001b0: 8ac4 6bbf ff8c 16bf 9bec d9be ba18 d6be
000001c0: eb4c 67bd 9a15 41bd f6aa 08bf f369 5cbf
000001d0: 98d9 063e ac2e 47bf 94ba b4be 23c1 46bf
000001e0: d4e9 423c 6c9e 0abc b9be fdbe 8e93 12bf
000001f0: fa54 da3e 2812 38bf 63af e83c 9058 19bf
00000200: 71a5 87be 5367 d73e 4782 233e 72cc 44bd
00000210: 09b1 253f ede2 88be b1e1 103f 63d6 f6be
00000220: ead6 b03e bc3c 4cbe 23ff 403f c14c 1a3e
00000230: f665 743e b058 333e 44cc 803e a930 c9bc
00000240: 1673 e03d 8ac9 56bf 1039 febe c821 10bf
00000250: a896 83be 3b7e 763e 06da b73e fb7c 973d
00000260: bece bb3e b18b 27bd 59c4 f4be 44a4 c63e
00000270: f8c0 3cbc d02e fc3e be9f 33bf aecb 50bd
00000280: 8a31 ddbd 75f1 493e c6cf d43d 86dd 41bf
00000290: efac dc3e a200 a7be 2d8a b9be abde 07bf
000002a0: 2ddf e9bd 669d 9ebc 2713 e1be ec5a 29be
000002b0: 887c c93e bd55 d6be ab42 ecbe 243b 1fbf
000002c0: 2ddf c33e 21fd 21bf b02e fbbe 34dc b4be
000002d0: 0348 5a3e 2a46 523e 22ec 1abf c76e 923e
000002e0: 128c 6ebe 420e 2ebf 9eb1 41bf 841d 883b
000002f0: 74e4 3bbf f0f0 74bf 244d e5be 5714 24be
00000300: f5c7 7abf eb21 e8be af2a 08bf eaf7 56bf
00000310: 12f9 80bf 8b63 3abe 069b 4abf 9680 dabe
00000320: f71e 98bd fc96 bdbe 0d59 2dbf 2593 95be
00000330: 8ff4 61bf b2fb 76be b397 c8bc 72cb 87bd
00000340: b4ea 1bbf 63f1 06bf d329 b03d 45e7 19bf
00000350: 3913 1b3e 3b84 04bd 055b ffbe 3fd6 4b3d
00000360: d5fb 20bf 40f1 0ebf 23e5 1c3f 8d0c 2ebf
00000370: 7b3a e5be 1b7d 3abf a080 d1be 9522 5abe
00000380: cbe3 23bf ab67 25bc 1588 78bf d6d8 9b3e
00000390: 01ba 4dbf f417 b2be 4477 a5be 11ef 3a3f
000003a0: 24b9 3e3e b4e7 6c3f f268 fb3e 852f 5b3f
000003b0: 1660 3e3f 8004 593e ba4f e63e fb8f 853e
000003c0: 090c e1bd 86e8 433f 19b8 b8be bfd7 b9bd
000003d0: cea1 473f fc63 733f 1554 0d3e 0b43 183f
000003e0: 1776 0f3f 3550 023f 123b 703f 22e3 973e
000003f0: 85e5 95be 26ec e03d a46d 42bf 5fd1 6bbe
-0.2708688 0.6625908 0.2554843 0.6368075 0.104098186 0.3413298 0.5929185 0.77572966
0.9771478 0.9431549 0.15073174 0.8097494 0.6642139 0.83701104 0.7803684 0.4776399
1.1112629 0.63046753 0.47060364 -0.47551432 1.0456058 -0.79661304 -0.7779768 -0.14134388
-0.4683883 -0.4256202 -0.07404821 -0.7135652 -0.4335768 -0.37616426 -0.62948215 -0.49547985
-0.5165887 -0.9242996 -0.14063703 -0.43553928 -1.1333311 -0.7542203 -1.1985329 -0.31934473
-0.8222945 -0.9693022 -1.3501571 0.48113826 -0.11670301 -0.29714644 0.1414604 0.23689769
-0.15983944 0.7921892 -0.45479673 0.1339634 0.054974105 0.21888798 -0.050805986 -0.011257359
0.46877214 0.7298461 -0.039618224 -0.34367192 0.17278403 0.13639887 -0.4106466 -0.18307026
-0.061527688 0.5558124 0.30486718 0.06351085 0.20569538 0.70750517 0.22779131 0.07098066
0.19479667 0.3634946 0.22852734 0.40997207 0.39876863 0.5378056 0.014288126 0.22994164
0.28511903 -0.040772937 0.16202387 0.5143525 0.25400233 0.011733868 0.4514583 -0.115333416
-0.31002957 -0.22896254 0.34574652 0.032818377 0.3149102 0.015466639 0.5026103 -0.14898296
0.81735694 0.66924417 0.36374092 -0.077260025 0.3473076 0.4567828 0.13740882 -0.21982607
0.18462448 -0.26686153 -0.91097414 0.37544978 -0.9209677 -0.5880889 -0.42563328 -0.4181574
-0.05646984 -0.04713974 -0.53385866 -0.86099166 0.13168943 -0.7780559 -0.35298598 -0.77638453
0.011896569 -0.008460622 -0.49559572 -0.572564 0.42642957 -0.71902704 0.028403943 -0.5990076
-0.2649341 0.42071018 0.15967666 -0.048046537 0.6472326 -0.2673563 0.5659438 -0.4821044
0.34538966 -0.19945043 0.7538931 0.15068342 0.2386702 0.175143 0.25155842 -0.024559336
0.10959451 -0.83901274 -0.4965291 -0.56301546 -0.2570088 0.2407159 0.35908526 0.07396885
0.3668117 -0.040904704 -0.4780605 0.387972 -0.011520617 0.49254465 -0.7016562 -0.050975494
-0.108004645 0.19721015 0.10391192 -0.7572864 0.43100688 -0.3261767 -0.36238232 -0.5307414
-0.114195205 -0.019362163 -0.43959925 -0.1653859 0.39352822 -0.41862288 -0.46144614 -0.62199616
0.38256207 -0.6327687 -0.49059057 -0.35324252 0.21316533 0.20534578 -0.6051656 0.2860014
-0.2329562 -0.67990506 -0.7566165 0.004153909 -0.73395467 -0.9568014 -0.44785416 -0.16023384
-0.9796136 -0.45338377 -0.5319013 -0.83972037 -1.007601 -0.18202035 -0.79142797 -0.42676228
-0.07427781 -0.37029254 -0.67714006 -0.29213825 -0.8826379 -0.24119452 -0.024486398 -0.06630601
-0.60905004 -0.52712077 0.08601727 -0.60118514 0.15144052 -0.032352667 -0.4987413 0.049764868
-0.62884265 -0.5583687 0.61287135 -0.679879 -0.4477118 -0.72847146 -0.40918446 -0.21302254
-0.6401946 -0.010095517 -0.97082645 0.3043887 -0.80361944 -0.347839 -0.32317555 0.73021036
0.18625313 0.9254105 0.49103504 0.85619384 0.74365366 0.21193123 0.44982702 0.2608641
-0.10988624 0.7652668 -0.36077955 -0.090743534 0.7798127 0.9507444 0.13801606 0.594773
0.56039566 0.50903636 0.93840134 0.29665476 -0.29276672 0.10982542 -0.7594855 -0.23029087

bias f4 [21]
00000000: 91f5 883f a810 1cbf 42e3 30bf b3e7 0cbf
00000010: 3107 0bbf e8c8 efbe 808c bebe 6978 0a3d
00000020: 035c cdbe 684b 00bf d565 63be 7aa8 873f
00000030: 65b3 81be 1f9a ddbe e096 323d 11f2 1fbf
00000040: df41 e9be 5526 16bf 0ea0 0abf f165 85be
00000050: 962c d7be
1.0699941 -0.60962915 -0.6909677 -0.55041045 -0.5430785 -0.46832967 -0.37216568 0.03380624
-0.40109262 -0.5011506 -0.22206815 1.059829 -0.2533218 -0.43281648 0.043600917 -0.6247874
-0.45558068 -0.5865224 -0.54150474 -0.26054338 -0.42026204

weight f4 [21, 21]
00000000: 955c 483f cd96 debe 6fa6 f9bc eb7e 413f
00000010: 8cef 093f f936 223f 5ec9 82be e759 763d
00000020: 5260 d13d 9ed3 49bf a117 97be bad1 1f3f
00000030: 5f83 403e 24d8 5fbd 6dce 15bf 374d 163d
00000040: 4663 a13e c73a 80be 8fb2 243f 31db 4e3e
00000050: 1bd9 3fbe 7fe7 4f3f 2b4a f93c a869 9fbe
00000060: 4dd8 7a3d 2cee 403f 3209 133f 0896 9e3e
00000070: 48cd 1f3d 419c 423f 6c52 3c3e 91f2 32be
00000080: d7ad 343f a166 4c3e d43b 2b3d 1b69 133f
00000090: 543e 803d bee2 043e 87cf 2f3f c6f9 cf3e
000000a0: b40e ac3e 5f0f 873d e508 4f3f 1951 173f
000000b0: 6b9b 553f f9aa c93e 7063 7b3e afa9 103f
000000c0: 6cc4 513f 839c 813f bc27 933e c23c f03d
000000d0: c34d 183f a885 ae3f 244f 853f f95f 1b3f
000000e0: ddb6 133f 486c 7b3e e0e5 5b3e efef 9e3e
000000f0: 36ba 8d3e 0569 253f 39ce 953f 70ca 323f
00000100: 84ea ac3e 42c6 a93e d630 b23e 7793 84bc
00000110: e61e b9bd f42b 923e f928 57be 6a1d a4be
00000120: 7e3e 483f 758a c7be 3874 4c3f 7992 313f
00000130: 66c6 b13e a701 f73e 2354 80bf 5ade bb3d
00000140: ebfb 4f3f d166 173f 89a9 983e d37c 62be
00000150: ea1d 473e dee3 d9bd dc1a 7bbe 7dbf 33bf
00000160: 4f72 74bf 7711 09bf 29d6 8cbf bd50 53be
00000170: c7eb 33bf 0f97 42bf 2484 17bf 486c fc3e
00000180: ae6d 1bbf 56c1 5abf 12c5 95bc ec90 aebe
00000190: b5ad 3bbe 8d29 2d3e fce3 4e3e 813c 30bc
000001a0: 2bf8 c33d a0e4 90bc bc65 bdbe 8450 98bc
000001b0: 39ed c8be 819e 203d a51f fd3d ced8 83bf
000001c0: 4625 4dbf 10ef 70bf e45a 05bf b147 b4bd
000001d0: b194 1cbf bb43 2ebf fa4a debe 4db5 2ebf
000001e0: 8e98 1abf 95e1 ddbe ef70 163e 54ec 95be
000001f0: 79b9 e5be 9aad ecbe 9c86 7e3e cd0b febe
00000200: 6d91 c3bd 8bb7 1dbf 3b86 e8be 1e55 5a3e
00000210: bbc2 d5bd 8402 553e ad59 6bbe d272 dbbe
00000220: 84bf 053f 1725 ba3e dbe3 3cba d73a 40be
00000230: 7941 f1bc e50d 64bf 8fff f6bd f0f3 37bf
00000240: 7461 2ebe ec4d 0f3f 797d 273f 7ecb 0ebf
00000250: 836a 9fbe d869 8bbf 84aa d6be 835e 76bf
00000260: 8a65 63bf 5f13 abbe a8be 9dbe e02e 9fbe
00000270: b59e 86bf 3bfd bfbe b86f 1cbf 2a15 93bf
00000280: a9de 5bbf a3ed 2cbf ae68 eb3e 8f60 6cbf
00000290: f7b1 acbd 4238 eebe 60b2 34be de21 1fbf
000002a0: 84c9 2abf 617b e03c 6c13 aabe 9b1c 58bf
000002b0: b463 12bf d381 2cbe 169e 23bf 05ea 2cbf
000002c0: 62d6 65bf 34cb 21bf ae2d 5cbf ec80 ffbe
000002d0: a133 34bf fb4d abbd a0d8 ccbe deff 1dbe
000002e0: 1986 1fbf 84a3 85bb dc44 00be 89ed 32bf
000002f0: fff6 95bd b9ae 15bf 41a6 15bf 1902 8e3e
00000300: b15b 43be b562 06bf d6ee 783f 1f1c c03d
00000310: fed8 7ebe f338 683e 182c 283f a88e 803d
00000320: 0348 56bf 7346 2b3c 6aa2 24bf 31fa 47bf
00000330: 55d0 6fbf 3462 d2be e49b bdbe 1180 37be
00000340: 6a0b f3be 4547 ddbe daba 573f 7a72 963f
00000350: 7920 2d3f 8953 cf3e f734 b5bd 6523 323f
00000360: 5429 0d3f 9807 833e 267e 0d3f 8be9 2f3d
00000370: f150 ca3e e5a0 f4bc f9e4 473e e489 443f
00000380: 6927 303f 2919 dd3d 6200 263f 3b6a 873e
00000390: 3bfe d53e b7c1 723f 1e88 193f 3a58 693f
000003a0: 0112 233f 3b48 543e 7fa4 f53d 2bfe b23d
000003b0: 48d8 e3bd f85f 193f 8ba0 073f a96e 3b3f
000003c0: 354a 6c3d 2454 673e e174 ad3e b254 213e
000003d0: f82b 2b3f 4e58 65bd 0936 363f aef2 683f
000003e0: 4ce7 6d3f 3988 573f f28e cd3e 2709 653d
000003f0: 3cf5 d43e 25f0 733f c6ae 363f 651b a03e
0.7826627 -0.43474427 -0.03047487 0.75584286 0.53881145 0.6336513 -0.25544256 0.06014433
0.1022345 -0.7883853 -0.29510215 0.6242939 0.18800114 -0.054649487 -0.58518106 0.03669473
0.31521052 -0.25044844 0.6433496 0.20200802 -0.18735163 0.8121261 0.030430874 -0.31135297
0.061241437 0.7536342 0.57435906 0.3097384 0.03901413 0.76019675 0.18390816 -0.17475344
0.7057776 0.19961025 0.041805103 0.57582253 0.06261888 0.1297712 0.68676037 0.4062025
0.33604968 0.06594729 0.80872947 0.5910812 0.83440274 0.39388254 0.24549651 0.56508917
0.8194034 1.0125889 0.28741252 0.11730339 0.59493655 1.3634539 1.0414777 0.6069332
0.577009 0.24553025 0.21474409 0.3104243 0.2768113 0.6461337 1.1703559 0.69840145
0.3377267 0.3315907 0.34802884 -0.016183598 -0.090390965 0.2854916 -0.21011724 -0.3205369
0.78220356 -0.38972822 0.79864836 0.69364125 0.34721678 0.48243448 -1.0025676 0.091732696
0.8124377 0.5914126 0.29816845 -0.22117929 0.19445005 -0.10639165 -0.24521965 -0.7021406
-0.9548692 -0.53542274 -1.1002856 -0.20636268 -0.7028164 -0.7601175 -0.59186006 0.49301362
-0.6071423 -0.8545126 -0.018282447 -0.34094942 -0.18327983 0.16910382 0.20204157 -0.010756613
0.09568819 -0.017687142 -0.3699168 -0.01859308 -0.39243487 0.03921366 0.12359551 -1.0300539
-0.80135 -0.9411478 -0.52091813 -0.088027366 -0.61164385 -0.680721 -0.43416578 -0.68245393
-0.6038903 -0.43336168 0.14691518 -0.29281867 -0.44868067 -0.46226197 0.24856037 -0.49618378
-0.09549222 -0.6160819 -0.4541491 0.21321532 -0.104375325 0.20801741 -0.22983427 -0.42861038
0.52245355 0.36356422 -0.0007205584 -0.18772446 -0.029450165 -0.890837 -0.12060463 -0.71856594
-0.17029363 0.55978274 0.6542583 -0.55779254 -0.3113595 -1.0891676 -0.41926968 -0.96237963
-0.8882681 -0.33413216 -0.30809522 -0.3109045 -1.0517184 -0.37497887 -0.6110797 -1.1490834
-0.8588663 -0.67550105 0.45978302 -0.92334837 -0.084323816 -0.46527296 -0.1764617 -0.6216105
-0.6671374 0.027402582 -0.33217943 -0.8441865 -0.57183385 -0.16846399 -0.63913095 -0.67544585
-0.8978025 -0.6320069 -0.860072 -0.49903047 -0.7039128 -0.08364483 -0.40009022 -0.15429637
-0.6231399 -0.0040783305 -0.12526268 -0.698937 -0.073225014 -0.5846973 -0.5845681 0.27735975
-0.19077946 -0.52494365 0.97239435 0.09380364 -0.24887463 0.22677974 0.6569228 0.062772095
-0.8370363 0.010453808 -0.64310324 -0.78116137 -0.93677264 -0.41090548 -0.37032998 -0.17919947
-0.47469646 -0.43218437 0.8426949 1.1753685 0.67627674 0.4049342 -0.08847993 0.6958526
0.55141187 0.2559173 0.5527061 0.042947333 0.39514878 -0.029861877 0.1952094 0.76772904
0.68810135 0.107958145 0.64844334 0.26448235 0.41795525 0.94826835 0.59973323 0.9115025
0.63699347 0.20730679 0.11994266 0.08739885 -0.11125237 0.5991206 0.52979344 0.7321573
0.057687957 0.22590691 0.33878234 0.15754965 0.66863966 -0.055992417 0.711762 0.909953
0.92931056 0.84192234 0.4014812 0.05591693 0.4159335 0.95288306 0.71360433 0.312709

bias f4 [21]
00000000: f698 013e b890 c03e 06ae 503f ac0d e73e
00000010: 86d5 48be bacd 03bf 98a0 243f 4022 32bf
00000020: a546 fabe 3122 81be d87f 0a3f 95e0 033f
00000030: ef2a b63e 08ae e73e f994 92be 75f7 fabe
00000040: 91f9 28bf 480b 2f3e 8109 a0be a678 1d3d
00000050: 6ed0 b73b
0.12656006 0.37610412 0.8151554 0.45127618 -0.19612703 -0.5148579 0.64307547 -0.6958351
-0.48882023 -0.25221398 0.54101324 0.5151456 0.3557963 0.45249963 -0.28629282 -0.4901692
-0.6600581 0.17094147 -0.3125725 0.038445137 0.0056095636

weight f4 [21, 21]
00000000: fd03 3a3f 30fa 1dbd e093 0d3d 4518 55bf
00000010: c98a ad3e d399 db3e 2e64 943e 4f27 c33d
00000020: f7bb c03e 3ed0 a63e 0175 3fbf dc0b 4e3d
00000030: a02f 12bf dce4 b73d 5687 4c3e 6751 803f
00000040: 70b1 183d f831 123f ee5e 5abf f1c5 3dbe
00000050: e16c 31be 4cf0 8ebc 2efa 163d 3f34 213f
00000060: 5a47 0f3f aeb9 abbe 89ba 1f3f 0017 e9be
00000070: 916b 09be 64c9 693f 4fdd 293c 87f4 573e
00000080: bdb5 7d3e 2d9d 55bf 12ae 803e 2a43 653f
00000090: e136 d2be f640 e6be 7680 b53e 770f 5b3f
000000a0: 206d 6c3f 5fa8 213f 5e51 dcbe 5a92 2cbf
000000b0: 3ba2 583f bb0e 6ebe d9f3 c8be 3bcb 3b3f
000000c0: 4068 a23e 8ef0 27bf 0f5a 063f 1ad5 cd3e
000000d0: 3b96 3bbf 793f d5be 5d21 e2bd 528b e93e
000000e0: 4511 123f ef23 cd3e 1505 7fbe 8204 cc3e
000000f0: 38a4 a43e b269 023f d2c9 0c3f fb12 3bbf
00000100: 6000 3e3f 6fe8 ae3e 9193 273f 5f0c 803f
00000110: 1a10 08be cefd 813f 710a 67bf d156 dc3e
00000120: a494 403f 0a2b 293f 5a02 0b3e 862f f53e
00000130: 6bd8 b43e c791 563f 9d5e 573f f832 8bbf
00000140: d169 053f 0285 843e c4d7 c4bd b194 c0bd
00000150: 6fbb 03bf 6a6a 983e ef4f b7be 5db2 523e
00000160: edf1 03be d986 91be b662 003e b8b6 2d3f
00000170: 4a67 673f d250 f33e e97e 8a3e 7bfd f4be
00000180: 101e fdbc fda8 123f c90b 993f a26c f13e
00000190: 2394 223f 40c3 143f 8a2b 6a3e 22ff c0bd
000001a0: 0e90 323f 658c 3bbd 7420 04bf 4f84 6abf
000001b0: 5088 013c a826 d0bb 0f37 b3be b1a5 d93e
000001c0: 2c5b 033f 5520 ca3d ecf2 eb3d 6931 12bf
000001d0: c421 48bf 776d 88bd e656 47be 38c2 2abd
000001e0: aa3b d13e 1dc6 753f d4ed 9fbe 1a8d ab3e
000001f0: 5ab5 c03e 9086 883c 15e1 423f 5846 88be
00000200: dc45 a1bf 03b6 70bf 0f6e 3fbf fb4e 8abc
00000210: 5728 453e 4f91 3fbf 8d6c 173f 9622 af3e
00000220: 7f4f 06bf 928b fdbd 867c 363d 0fa8 16be
00000230: bcb8 7a3e b695 0c3e a74d 043e daa7 7d3e
00000240: 713f 5abf 234c 443f fc48 5b3f 48fe 7dbe
00000250: 4670 833e 13ad 9ebc 1bdc 6b3e a05c 38bf
00000260: 95e5 863e 735f b03d 0e02 3fbe 02b9 4f3f
00000270: b2ce 4a3f 48d8 243f e20e 76bf b942 94bd
00000280: ce3a e73e daef 8b3f 1a8e 0d3f a534 6a3f
00000290: 6aa4 2f3f b0bb 043f 3ade 1a3d 4370 f73d
000002a0: ba7c 4fbf e0a5 d1bd 0ce9 5bbc 0c36 9d3e
000002b0: 181a 8cbd 5d39 df3e c30f ab3d af5f a0bd
000002c0: d26b e83e c472 4c3f 9946 013f c440 d9be
000002d0: c192 0fbf c2d6 a83e 5c99 d33e 920a 013f
000002e0: e39c 4bbe b692 133f 3d73 703e e96e 623f
000002f0: 86d7 303f 19f4 5f3e 3a55 cbbd 4933 07bb
00000300: 6ee9 cebd a2c7 49be 3e9e e23e e5f4 303f
00000310: 12ce 37be 43b0 543f efb9 953e df25 1dbf
00000320: 798a 20bf de60 e4bd 5c96 113f 1d9b 233f
00000330: d0a7 38bd a71b 2bbe 26c2 793f 6df9 f2bd
00000340: 5bd9 dc3e 8d92 da3d 2285 a0bd 5558 e53e
00000350: 86b7 113f 497a b5ba 3963 13be f9ab 0a3f
00000360: 120b 08bf 14f2 babe e5ae 813f b9c2 e23c
00000370: d07a 163f 1978 6dbf ad41 49bf 71a4 173f
00000380: 92e1 683e 0b5d 97be f742 fd3b 9858 f23d
00000390: e3df 473f 8b2d 573f 5192 1c3e 1572 20be
000003a0: 7fce 273e f5e5 393f e235 fd3e 2ad9 c33d
000003b0: 99d6 91be 3ed1 003f cc92 6fbf 8d1c ba3e
000003c0: 9e92 333e 0e8d 373f e888 3b3e ff11 49bf
000003d0: fb3a a23f 4dc5 893e bcee 03bf 2189 6cbf
000003e0: a9bb a6bd a3c9 023f 0f66 ac3f fbc6 8a3e
000003f0: 738e cbbc 188c dd3d feb8 dfbc b34f 8f3e
0.72662336 -0.038568676 0.034564853 -0.8324016 0.33894947 0.42890796 0.2898268 0.09528982
0.37643406 0.3258075 -0.7478791 0.05030428 -0.5710392 0.08979198 0.19973502 1.0024842
0.037278593 0.57107496 -0.853011 -0.1853254 -0.1732669 -0.017448567 0.036859684 0.62970346
0.5596825 -0.335401 0.62394005 -0.4552536 -0.1341994 0.9132292 0.0103677055 0.21089374
0.24776359 -0.83442956 0.25132805 0.8955561 -0.41057494 -0.44971436 0.3544957 0.8557047
0.9235401 0.6314754 -0.43030828 -0.67410815 0.84622544 -0.23247807 -0.3924854 0.7335698
0.3172016 -0.6560143 0.5248117 0.40201646 -0.7327611 -0.41649988 -0.1104152 0.45614105
0.570576 0.40066478 -0.24904282 0.3984719 0.3215654 0.5094253 0.54995453 -0.73075837
0.7421932 0.34161708 0.65459543 1.0003775 -0.13287392 1.015558 -0.9025031 0.43034986
0.7522681 0.660813 0.13575116 0.4788782 0.35321364 0.8381619 0.84128743 -1.087493
0.5211459 0.25882727 -0.096114665 -0.09403361 -0.51457876 0.29768687 -0.35803172 0.20575853
-0.12885256 -0.28423193 0.12537655 0.6785693 0.9039198 0.47522599 0.2704995 -0.4784964
-0.030898124 0.57289106 1.1956722 0.47153193 0.6350729 0.5811043 0.22868171 -0.09423663
0.6975106 -0.045788188 -0.5161202 -0.91608137 0.007906035 -0.0063522644 -0.35002944 0.42509225
0.5131099 0.09869448 0.11520943 -0.57106644 -0.7817652 -0.06661504 -0.19466743 -0.041689128
0.40865833 0.9600542 -0.31236136 0.3350609 0.3763836 0.016665727 0.761247 -0.26616168
-1.2599444 -0.9402773 -0.7477731 -0.016883364 0.1925367 -0.748311 0.5915001 0.34206074
-0.5246505 -0.123801365 0.04455235 -0.14712547 0.24484533 0.13728985 0.12920247 0.24771062
-0.85253054 0.76678675 0.8565824 -0.24804032 0.25671595 -0.019369638 0.23033182 -0.72016335
0.26347032 0.086119555 -0.18653128 0.81141675 0.7922164 0.6439252 -0.9611646 -0.07239289
0.45162052 1.0932572 0.55294955 0.9148658 0.6861025 0.5184889 0.037809588 0.12081959
-0.8104969 -0.10236716 -0.013422262 0.30705297 -0.068409145 0.43598452 0.08352616 -0.0783075
0.4539476 0.7986262 0.5049835 -0.42432225 -0.56083304 0.32976347 0.4132794 0.50406754
-0.19884066 0.5764574 0.2348146 0.88450485 0.6907886 0.2187046 -0.09928365 -0.0020629934
-0.10103117 -0.1970506 0.44261354 0.6912368 -0.17949703 0.83081454 0.2924342 -0.6138591
-0.6271129 -0.111512884 0.56870055 0.6390856 -0.045081913 -0.16709767 0.9756187 -0.118639804
0.4313458 0.106724836 -0.07837893 0.44793954 0.5692066 -0.0013845648 -0.14393319 0.5416866
-0.5314189 -0.36512816 1.0131499 0.027680742 0.58781147 -0.9276138 -0.7861584 0.5923529
0.22742298 -0.29563174 0.00772893 0.11833304 0.78076 0.8405387 0.1529019 -0.15668519
0.16387366 0.7261651 0.49455172 0.09562905 -0.28484038 0.5031928 -0.9358337 0.36349908
0.17536399 0.7169961 0.18313944 -0.78543085 1.267425 0.2690834 -0.51536155 -0.9239674
-0.08141262 0.51088923 1.3468646 0.27104935 -0.024848199 0.108177364 -0.02730989 0.27990493

bias f4 [21]
00000000: 8fbd 7dbe 3d54 06bf 7243 1fbf b3bb a2be
00000010: 9589 febe 9661 bfbe 2e26 82be 7376 17bf
00000020: a1fd 27bf 79ac bbbe 3d40 fcbe 498c a7be
00000030: 2310 d2be e184 47be 96c8 aabe aab9 c83d
00000040: a473 13bf 2480 b6be 2799 593e 94c7 64be
00000050: 029d ecbd
-0.24779342 -0.5247229 -0.6221229 -0.31783828 -0.49714342 -0.3737914 -0.25419754 -0.59165114
-0.6562138 -0.36655024 -0.4926776 -0.32724217 -0.41027936 -0.19484283 -0.3335616 0.098010376
-0.5759833 -0.3564464 0.21249829 -0.22341758 -0.11553384

weight f4 [4, 21]
00000000: a054 233e d734 683f 2b2f cb3d c4ef 923f
00000010: e7ee bbbd f64e 943d f5bd e63d 6308 8a3e
00000020: 5069 ab3d 0f07 dfbc 71e9 d2bc 5ebd 673f
00000030: 1533 43be 2530 62be 946c 1f3f 23c4 c3be
00000040: 78f1 27bc fd0f cdbf 82be a73e 2ba9 e8bf
00000050: ce8a 4abd bb31 03be 7e87 a73c 8139 533f
00000060: a18c 453e 45e9 053f 14a1 c9be b4f1 e93e
00000070: 225d 1c3d 0d5b 91be fe1f 103f 0112 06bf
00000080: 8ad1 093d 702e 673f 951a abbe 5132 4e3f
00000090: 8eb1 ec3e dbaf 033f 3827 48be 81e1 38bf
000000a0: 980a d6be e2d7 df3d 15cf ab3e eb6e e53e
000000b0: c76a f33e acc3 9c3e ff7f e93e 2c07 3a3f
000000c0: c654 6e3f 8477 80be 2b4b 0c3f 8a70 b73e
000000d0: 115f e63e bb88 203f ed6a 5bbd 888c 0c3f
000000e0: c60c febe 2148 3e3f 3e3b af3e 2212 45bd
000000f0: d54c 25bf 0169 733f e113 ac3e fb16 cc3d
00000100: e181 53bc a095 483d 33f5 a2bf 5b23 fcbc
00000110: 48a2 a43e 051a 80bd f393 cfbe 1908 b83e
00000120: 69cc 4c3f d010 fa3d 3389 0bbf 80b5 183f
00000130: 3edb e43e 0b63 fabf 29db bbbe 0d7a 3e3e
00000140: 3ea9 743f 4e7b 7ebe 5874 623f 9985 bdbe
0.1595025 0.9070563 0.09921106 1.1479421 -0.091764264 0.07241623 0.112667 0.26959524
0.08369696 -0.027225045 -0.02574608 0.90523326 -0.19062455 -0.22088678 0.6227505 -0.38235578
-0.010250442 -1.6020504 0.32762533 -1.8176626 -0.04944878 -0.1281194 0.02045035 0.8250962
0.19291927 0.52309066 -0.39380705 0.45692217 0.038174756 -0.2838978 0.56298816 -0.5237122
0.033647098 0.90305233 -0.33418718 0.80545527 0.46229213 0.5144021 -0.19546211 -0.7221909
-0.41804957 0.10929848 0.3355643 0.44811186 0.47542402 0.30618036 0.45605466 0.72667193
0.93098104 -0.25091183 0.548022 0.35828048 0.44994405 0.62708634 -0.05356877 0.54901934
-0.4961912 0.7432881 0.34224886 -0.048112996 -0.6457036 0.950821 0.33608916 0.09965321
-0.0129093835 0.04897082 -1.2731079 -0.030778578 0.3215506 -0.06254963 -0.40542564 0.35943678
0.79999405 0.12210238 -0.54506224 0.5965195 0.4469852 -1.9561476 -0.36690643 0.18601246
0.95570743 -0.24851725 0.88458776 -0.3701599

bias f4 [4]
00000000: 9e35 503d 6fce c03e c8f0 f03e 3e19 0bbf
0.050832383 0.37657496 0.47058702 -0.5433539
